…
[2022-09-18 10:38:22,282][utils.ioUtils][INFO] - load data from /home/zzx/es_project/es-project -v2/Model_train_predict/example/re/standard/data/out/train.pkl
[2022-09-18 10:38:22,284][utils.ioUtils][INFO] - load data from /home/zzx/es_project/es-project -v2/Model_train_predict/example/re/standard/data/out/valid.pkl
[2022-09-18 10:38:22,285][utils.ioUtils][INFO] - load data from /home/zzx/es_project/es-project -v2/Model_train_predict/example/re/standard/data/out/test.pkl
[2022-09-18 10:38:27,337][__main__][INFO] - 
 LM(
  (bert): BertModel(
    (embeddings): BertEmbeddings(
      (word_embeddings): Embedding(21128, 768, padding_idx=0)
      (position_embeddings): Embedding(512, 768)
      (token_type_embeddings): Embedding(2, 768)
      (LayerNorm): LayerNorm((768,), eps=1e-12, elementwise_affine=True)
      (dropout): Dropout(p=0.1, inplace=False)
    )
    (encoder): BertEncoder(
      (layer): ModuleList(
        (0): BertLayer(
          (attention): BertAttention(
            (self): BertSelfAttention(
              (query): Linear(in_features=768, out_features=768, bias=True)
              (key): Linear(in_features=768, out_features=768, bias=True)
              (value): Linear(in_features=768, out_features=768, bias=True)
              (dropout): Dropout(p=0.1, inplace=False)
            )
            (output): BertSelfOutput(
              (dense): Linear(in_features=768, out_features=768, bias=True)
              (LayerNorm): LayerNorm((768,), eps=1e-12, elementwise_affine=True)
              (dropout): Dropout(p=0.1, inplace=False)
            )
          )
          (intermediate): BertIntermediate(
            (dense): Linear(in_features=768, out_features=3072, bias=True)
          )
          (output): BertOutput(
            (dense): Linear(in_features=3072, out_features=768, bias=True)
            (LayerNorm): LayerNorm((768,), eps=1e-12, elementwise_affine=True)
            (dropout): Dropout(p=0.1, inplace=False)
          )
        )
      )
    )
    (pooler): BertPooler(
      (dense): Linear(in_features=768, out_features=768, bias=True)
      (activation): Tanh()
    )
  )
  (bilstm): RNN(
    (rnn): LSTM(768, 50, batch_first=True, dropout=0.3, bidirectional=True)
  )
  (fc): Linear(in_features=100, out_features=15, bias=True)
  (dropout): Dropout(p=0.3, inplace=False)
)
[2022-09-18 10:38:27,338][__main__][INFO] - ========== Start training ==========
[2022-09-18 10:38:27,869][deepke.relation_extraction.standard.tools.trainer][INFO] - Train Epoch 1: [320/577 (55%)]	Loss: 1.943728
[2022-09-18 10:38:27,869][deepke.relation_extraction.standard.tools.trainer][INFO] - Train Epoch 1: Acc: 36.56%	macro metrics: [p: 0.3189, r:0.1810, f1:0.1870]
…
