…
[2022-09-12 18:01:27,368][deepke.relation_extraction.standard.utils.ioUtils][INFO] - load data from /home/zzx/deepke/DeepKE/example/re/standard/data/out/vocab.pkl
[2022-09-12 18:01:27,368][utils.ioUtils][INFO] - load data from /home/zzx/deepke/DeepKE/example/re/standard/data/out/train.pkl
[2022-09-12 18:01:27,373][utils.ioUtils][INFO] - load data from /home/zzx/deepke/DeepKE/example/re/standard/data/out/valid.pkl
[2022-09-12 18:01:27,375][utils.ioUtils][INFO] - load data from /home/zzx/deepke/DeepKE/example/re/standard/data/out/test.pkl
[2022-09-12 18:01:30,723][__main__][INFO] -
 Transformer(
  (embedding): Embedding(
    (wordEmbed): Embedding(445, 60, padding_idx=0)
    (entityPosEmbed): Embedding(62, 60, padding_idx=0)
    (attribute_keyPosEmbed): Embedding(62, 60, padding_idx=0)
    (layer_norm): LayerNorm((60,), eps=1e-05, elementwise_affine=True)
  )
  (transformer): Transformer(
    (layer): ModuleList(
      (0): TransformerLayer(
        (attention): TransformerAttention(
          (multihead_attention): MultiHeadAttention(
            (q_in): Linear(in_features=60, out_features=60, bias=True)
            (k_in): Linear(in_features=60, out_features=60, bias=True)
            (v_in): Linear(in_features=60, out_features=60, bias=True)
            (attention): DotAttention()
            (out): Linear(in_features=60, out_features=60, bias=True)
          )
          (dense): Linear(in_features=60, out_features=60, bias=True)
          (dropout): Dropout(p=0.1, inplace=False)
          (layerNorm): LayerNorm((60,), eps=1e-12, elementwise_affine=True)
        )
        (output): TransformerOutput(
          (zoom_in): Linear(in_features=60, out_features=256, bias=True)
          (zoom_out): Linear(in_features=256, out_features=60, bias=True)
          (dropout): Dropout(p=0.1, inplace=False)
          (layerNorm): LayerNorm((60,), eps=1e-12, elementwise_affine=True)
        )
      )
      (1): TransformerLayer(
        (attention): TransformerAttention(
          (multihead_attention): MultiHeadAttention(
            (q_in): Linear(in_features=60, out_features=60, bias=True)
            (k_in): Linear(in_features=60, out_features=60, bias=True)
            (v_in): Linear(in_features=60, out_features=60, bias=True)
            (attention): DotAttention()
            (out): Linear(in_features=60, out_features=60, bias=True)
          )
          (dense): Linear(in_features=60, out_features=60, bias=True)
          (dropout): Dropout(p=0.1, inplace=False)
          (layerNorm): LayerNorm((60,), eps=1e-12, elementwise_affine=True)
        )
        (output): TransformerOutput(
          (zoom_in): Linear(in_features=60, out_features=256, bias=True)
          (zoom_out): Linear(in_features=256, out_features=60, bias=True)
          (dropout): Dropout(p=0.1, inplace=False)
          (layerNorm): LayerNorm((60,), eps=1e-12, elementwise_affine=True)
        )
      )
      (2): TransformerLayer(
        (attention): TransformerAttention(
          (multihead_attention): MultiHeadAttention(
            (q_in): Linear(in_features=60, out_features=60, bias=True)
            (k_in): Linear(in_features=60, out_features=60, bias=True)
            (v_in): Linear(in_features=60, out_features=60, bias=True)
            (attention): DotAttention()
            (out): Linear(in_features=60, out_features=60, bias=True)
          )
          (dense): Linear(in_features=60, out_features=60, bias=True)
          (dropout): Dropout(p=0.1, inplace=False)
          (layerNorm): LayerNorm((60,), eps=1e-12, elementwise_affine=True)
        )
        (output): TransformerOutput(
          (zoom_in): Linear(in_features=60, out_features=256, bias=True)
          (zoom_out): Linear(in_features=256, out_features=60, bias=True)
          (dropout): Dropout(p=0.1, inplace=False)
          (layerNorm): LayerNorm((60,), eps=1e-12, elementwise_affine=True)
        )
      )
    )
  )
  (fc): Linear(in_features=60, out_features=15, bias=True)
)
[2022-09-12 18:01:30,724][__main__][INFO] - ========== Start training ==========
[2022-09-12 18:01:30,940][deepke.relation_extraction.standard.tools.trainer][INFO] - Train Epoch 1: [320/577 (55%)]	Loss: 2.469722
[2022-09-12 18:01:30,941][deepke.relation_extraction.standard.tools.trainer][INFO] - Train Epoch 1: Acc: 11.25%	macro metrics: [p: 0.0492, r:0.0931, f1:0.0483]
…
